Models/TemporalNet_BestWeights.pth (torch, 83642 bytes, 14 tensors)

layers.0.weight f4 [256, 4]
0	0x3eaaa27d	0.33327094
1	0xbec60053	-0.38672122
2	0x3e676b80	0.22599602
3	0x3e2ffd63	0.17186503
4	0xbee5d490	-0.44888735
5	0xbeabafbc	-0.33532512
6	0x3ef43de0	0.47703457
7	0xbd29aba3	-0.04142345
8	0x3e57c1b0	0.2106998
9	0x3e04ea57	0.12980019
10	0x3d44ec7b	0.048077088
11	0x3d9860e7	0.07440358
12	0xbe639199	-0.2222351
13	0xbec67619	-0.38761976
14	0x3ebc0bd9	0.3672779
15	0x3e23393d	0.15939803
16	0xbebbfef2	-0.36717945
17	0xbe774180	-0.2414608
18	0xbe8ba996	-0.2727782
19	0xbdcbb08a	-0.099457815
20	0xbea747ef	-0.32672068
21	0xbec898ec	-0.3917917
22	0x3eea8fbe	0.45812792
23	0x3e8601d8	0.26173282
24	0x3e8d457b	0.27592072
25	0xbd53eda6	-0.05174031
26	0xbe4961a4	-0.19666153
27	0x3eed034d	0.4629158
28	0xbeed30f2	-0.46326405
29	0x3d263324	0.040576115
30	0xbdba6e5d	-0.091030814
31	0xbe9c5fbf	-0.30541798
32	0x3ef2a8b7	0.47394344
33	0xbeca0e6e	-0.39464134
34	0xbe448df9	-0.19194783
35	0x3e45348e	0.1925833
36	0xbe2f76a7	-0.17135106
37	0x3ec6bde3	0.38816747
38	0x3e514050	0.2043469
39	0xbed3d1b9	-0.41370943
40	0x3edf3fe1	0.43603423
41	0xbea4c1ec	-0.321792
42	0xbef657e3	-0.48113927
43	0xbc84ac54	-0.016195454
44	0xbebb9433	-0.36636505
45	0xbeaf3af8	-0.34224677
46	0x3d1982f9	0.03747842
47	0x3ddd4b85	0.1080542
48	0xbe9139bc	-0.2836436
49	0xbebf7e30	-0.3740096
50	0xbe4ad981	-0.19809534
51	0xbed1ac1a	-0.40951616
52	0xbe9958b2	-0.29950482
53	0xbdebe104	-0.11517528
54	0x3efb557f	0.49088666
55	0xbec1b448	-0.37832856
56	0x3f011d54	0.50435376
57	0x3ef22644	0.4729482
58	0xbe82e16f	-0.25562617
59	0xbe2f05c9	-0.1709205
60	0xbed03539	-0.40665606
61	0x3e406afa	0.18790808
62	0x3e343b62	0.17600778
63	0x3d8703b5	0.06592504
64	0x3e8c9566	0.27457732
65	0xbcf30f34	-0.029670335
66	0xbdd65fd4	-0.104674965
67	0x3c9762fb	0.018479815
68	0xbeb9fcac	-0.36325586
69	0xbe95a9bd	-0.29231063
70	0xbef3a6fa	-0.4758833
71	0x3b5d577d	0.003377407
72	0x3cc8f897	0.0245326
73	0xbeace58c	-0.3376888
74	0x3ef5d184	0.4801141
75	0x3ea277b6	0.31731957
76	0xbc572bf8	-0.013133042
77	0x3e4eb699	0.20186843
78	0xbec8a532	-0.39188534
79	0x3ef3d367	0.47622225
80	0x3cde937d	0.027169937
81	0x3cdb316d	0.026756966
82	0x3e43484e	0.19070551
83	0xbe86dc78	-0.2634008
84	0xbe8a832a	-0.27053195
85	0x3ec7055c	0.38871276
86	0x3ef6af28	0.4818051
87	0xbee597a6	-0.4484226
88	0xbe386a05	-0.18009193
89	0xbedf64f5	-0.43631712
90	0xbd9bf148	-0.0761438
91	0xbeee6cce	-0.46567386
92	0xbea61364	-0.3243667
93	0x3e7d5de5	0.24742849
94	0x3efbeb2d	0.49202862
95	0xbee516ba	-0.44743901
96	0xbee95a47	-0.4557669
97	0xbdb83c85	-0.08995918
98	0xbee26165	-0.4421493
99	0xbd50a905	-0.05094244
100	0xbe08517d	-0.13312335
101	0xbef54a09	-0.47908047
102	0x3eac2a99	0.3362625
103	0xbd9c44e9	-0.07630331
104	0x3e86cd3b	0.26328453
105	0x3e4a7be5	0.19773825
106	0x3e28c9ad	0.16483183
107	0x3eeaadff	0.45835873
108	0xbe534e50	-0.20635343
109	0xbe5e474a	-0.21706882
110	0x3d9a4deb	0.07534393
111	0x3e99bbdd	0.3002614
112	0x3e729937	0.2369126
113	0x3e65623e	0.22400758
114	0xbe1daca6	-0.15397891
115	0x3e8b6d10	0.27231646
116	0x3eec3a2c	0.46138132
117	0xbb025374	-0.0019886168
118	0x3ea94bb8	0.3306558
119	0x3e81a527	0.25321314
120	0xbea70a47	-0.32625028
121	0xbe7178fd	-0.2358131
122	0xbd529b98	-0.051417917
123	0x3eb4d950	0.35322046
124	0x3de61b9c	0.11235735
125	0x3e9b7d9d	0.30369273
126	0xbe83f2bb	-0.25771126
127	0xbec0e088	-0.37671304
128	0x3ddb32cd	0.10703049
129	0xbed489c9	-0.41511372
130	0xbdd35d88	-0.10320574
131	0x3d515654	0.05110772
132	0x3ecab6d0	0.395926
133	0x3e71157e	0.23543355
134	0xbee7b5f2	-0.45256
135	0x3e5e2462	0.21693566
136	0x3e34f022	0.17669728
137	0x3e39036c	0.18067712
138	0xbe59217d	-0.21204181
139	0xbea2d9d2	-0.3180681
140	0x3ded57c8	0.115890086
141	0xbeee2114	-0.46509612
142	0x3eb212ac	0.3477987
143	0xbed55e37	-0.41673443
144	0x3eae1eae	0.34007782
145	0x3ea82f41	0.32848552
146	0xbd25aa03	-0.04044534
147	0xbddd763c	-0.10813567
148	0xbed15636	-0.40886086
149	0x3ea436e1	0.3207312
150	0x3e852766	0.2600662
151	0x3e0f4fc4	0.13995272
152	0xbec186d9	-0.37798193
153	0x3e4dd378	0.201002
154	0xbee2f846	-0.44330043
155	0x3ea76be9	0.32699516
156	0xbdd2ecf8	-0.102991045
157	0xbe7143a2	-0.23560956
158	0x3db6994b	0.08915957
159	0xbeb0b7ef	-0.3451533
160	0x3ec10509	0.37699154
161	0xbd28db45	-0.041224737
162	0x3eb9f519	0.36319807
163	0xbef78be4	-0.48348916
164	0x3eef277d	0.46709815
165	0x3c93ee33	0.018057918
166	0x3e26ffe4	0.16308552
167	0xbeabfaf8	-0.3358991
168	0xbe005127	-0.12530957
169	0x3e8c51ac	0.2740606
170	0xbeaf57a5	-0.34246555
171	0xbdf39e51	-0.11895431
172	0xbeac11fe	-0.33607477
173	0x3e57d817	0.21078525
174	0x3eeda5d0	0.46415567
175	0x3e33d078	0.17559993
176	0xbe0a580e	-0.13510153
177	0x3de7b5b1	0.11313952
178	0xbedbfd1c	-0.42966545
179	0x3e9f32df	0.310935
180	0x3e8942dc	0.26808822
181	0x3ea4d129	0.32190827
182	0x3d9504c7	0.07276302
183	0x3dc4068d	0.09571562
184	0x3eb16a9d	0.34651652
185	0xbe841e02	-0.25804144
186	0x3eb28f69	0.34875038
187	0x3c068f4f	0.008212878
188	0x3ea92f9d	0.3304414
189	0x3e58b4bd	0.21162696
190	0x3df9b153	0.12192025
191	0xbe99d294	-0.3004347
192	0xbbec4243	-0.0072100474
193	0xbe12b869	-0.1432816
194	0x3dc6883a	0.09693952
195	0xbe9adf04	-0.30248272
196	0x3d616f99	0.05503807
197	0xbe6459c2	-0.22299865
198	0xbecb153e	-0.39664644
199	0x3ed4ed40	0.41587257
200	0x3ce92d29	0.028463917
201	0xbe869f49	-0.262934
202	0xbd1a645e	-0.037693374
203	0xbe32c8af	-0.17459367
204	0x3e3b826a	0.18311468
205	0x3ec8e065	0.392337
206	0xbe224e31	-0.1585014
207	0x3dd6a440	0.10480547
208	0xbd941eaa	-0.07232411
209	0xbed289a2	-0.4112063
210	0x3e81237a	0.2522238
211	0x3ec730c9	0.38904408
212	0x3ecde1f1	0.40211442
213	0xbe218a82	-0.15775493
214	0xbe82c93b	-0.25544152
215	0xbe84c456	-0.25931042
216	0x3efe9be1	0.497283
217	0x3e90aa77	0.28255054
218	0x3e9f5481	0.3111916
219	0x3e28e667	0.16494142
220	0xbece6852	-0.40313965
221	0xbe00f509	-0.12593473
222	0xbecbd99c	-0.3981446
223	0xbee6af6a	-0.45055705
224	0x3d52598b	0.051354926
225	0x3e6a0e40	0.22856998
226	0xbea89313	-0.3292471
227	0xbe504302	-0.20338061
228	0xbd0007fd	-0.03125762
229	0xbe9a0e7c	-0.30089176
230	0x3dbe3a6f	0.09288489
231	0xbec0aa0a	-0.3762973
232	0xbec9ff23	-0.39452466
233	0x3e8db017	0.27673408
234	0x3d82ef3e	0.06393288
235	0x3ef24a89	0.4732249
236	0xbec730d2	-0.38904434
237	0xbeb0fbc3	-0.3456708
238	0xbedd6f57	-0.43249008
239	0xbef10454	-0.47073615
240	0xbe87ff75	-0.26562086
241	0xbedb0b18	-0.427819
242	0xbe6e8c7d	-0.2329578
243	0x3dc0a8cd	0.09407196
244	0x3e247d0d	0.16063328
245	0xbeb5b298	-0.3548782
246	0x3d262006	0.040557884
247	0xbe1ec71e	-0.15505645
248	0x3e97e760	0.29668713
249	0xbe718ea4	-0.2358957
250	0xbe45e6ea	-0.19326368
251	0xbeb63746	-0.35589045
252	0xbe1d87bf	-0.15383814
253	0x3e36565d	0.17806382
254	0x3ebe1199	0.371228
255	0x3e7830f5	0.24237426

layers.0.bias f4 [256]
0	0x3df19907	0.11796766
1	0x3db74e75	0.08950511
2	0xbd22dabe	-0.03975939
3	0x36a02ff1	4.7739527e-06
4	0xbe998094	-0.2998091
5	0xbe97ede5	-0.29673687
6	0xbed60eb2	-0.41808087
7	0xbe86f24b	-0.2635673
8	0x3e1bab63	0.15202098
9	0xbeccea1d	-0.40022364
10	0xbe566733	-0.20937805
11	0x3adf0c08	0.0017017135
12	0x3d0230ca	0.03178481
13	0xbddca11f	-0.10772919
14	0x3e9db49f	0.30801865
15	0xbe251a9b	-0.1612343
16	0x3cdec5b7	0.027193887
17	0xbde16811	-0.11006177
18	0x3ebc60c9	0.3679259
19	0x3e271c94	0.16319495
20	0x3739c378	1.107237e-05
21	0xbbda86d6	-0.0066689057
22	0x3e5c43e4	0.21510273
23	0xbc5c63ba	-0.013451511
24	0x3cdc8460	0.02691859
25	0xbe8e267c	-0.27763736
26	0x3ed92b72	0.4241596
27	0xbe529270	-0.20563674
28	0xbe1cfc0c	-0.15330523
29	0x36e07bfe	6.690155e-06
30	0xbcda9972	-0.026684497
31	0x3e502bfe	0.20329282
32	0x3eabeaee	0.33577675
33	0x3e8a41d4	0.27003348
34	0x3e8f4aa7	0.27986643
35	0x3e323c2b	0.17405765
36	0x3c915741	0.017741801
37	0xbe9cf01f	-0.30651948
38	0x3ed66c6a	0.41879588
39	0x3ebb4b02	0.36580664
40	0x3e93c649	0.28862217
41	0x3e900ed2	0.28136307
42	0xbde3b320	-0.1111815
43	0xbed1c6e4	-0.40972054
44	0x3e8b63ad	0.27224484
45	0xbdf47507	-0.11936384
46	0xbeca3864	-0.39496148
47	0x3ecaf5a9	0.3964055
48	0x3d9671e8	0.07345945
49	0xbe62554b	-0.22102849
50	0xbe61ccf3	-0.22050838
51	0xbe7030a4	-0.23456055
52	0x3e3004a1	0.17189266
53	0xbe45b899	-0.193087
54	0xbe8708b5	-0.2637383
55	0xbde942d1	-0.11389697
56	0x3e329c8b	0.17442529
57	0x3eb50f5e	0.35363287
58	0x3e6e06ed	0.2324483
59	0xbe6ba8a2	-0.23013547
60	0x3dc8a571	0.097971804
61	0x3ecb6fce	0.39733738
62	0x3e7eb713	0.24874525
63	0xbe8c6fc1	-0.2742901
64	0x3e6c5c63	0.23082118
65	0x3e8f2d22	0.2796412
66	0xbea968be	-0.33087724
67	0xbdc92263	-0.09821012
68	0xbe615918	-0.22006643
69	0xbebc8d1d	-0.3682641
70	0xbe8d0111	-0.27539876
71	0x3d096814	0.033546522
72	0x3eab7520	0.33487797
73	0x3e870400	0.2637024
74	0xbebd3941	-0.36957744
75	0xbeb10442	-0.3457356
76	0x3ae9567a	0.0017802261
77	0x3d15d1a8	0.036576897
78	0x3e3b694e	0.1830189
79	0xbeb39086	-0.350712
80	0xbede4abd	-0.43416396
81	0xb7b0cd1d	-2.1076348e-05
82	0xbecd1201	-0.40052798
83	0x3eb32148	0.3498633
84	0xbee1fc1c	-0.44137657
85	0x3d2f562a	0.04280678
86	0x3db92f4d	0.09042225
87	0xbe430256	-0.1904386
88	0xbe452178	-0.19251049
89	0xbee55815	-0.44793764
90	0x3eac3b65	0.33639064
91	0x3ed7579b	0.42059025
92	0x3c082f21	0.008312018
93	0x3ec7428e	0.38917965
94	0x3e90b730	0.2826476
95	0xbe4f37f3	-0.20236187
96	0xbebf8f07	-0.3741381
97	0xbe0ac86a	-0.13553014
98	0x3e1a62d7	0.15076767
99	0x3da43437	0.08017772
100	0xbe95c3a1	-0.29250816
101	0x3e4720de	0.19446132
102	0x3dced7a2	0.100997224
103	0xbeaddc5d	-0.33957186
104	0x3d107652	0.03526909
105	0xbe0c0d2f	-0.13676904
106	0xbe059ab5	-0.13047297
107	0x3ee3cd91	0.44492772
108	0xbe879941	-0.2648411
109	0xbdda27d6	-0.10652129
110	0x3e49a8dd	0.19693322
111	0xbe2008de	-0.15628383
112	0xbd6841af	-0.056703266
113	0xbcf4d6de	-0.029887613
114	0xbd135444	-0.035969034
115	0x3e8958a3	0.26825437
116	0x3ec5be04	0.38621533
117	0xbecb702d	-0.3973402
118	0xbed48f43	-0.4151555
119	0x3e967503	0.29386148
120	0x3784fc67	1.585316e-05
121	0xbe9d83d2	-0.30764633
122	0x3db0d7e5	0.086349286
123	0xbed2e6cf	-0.41191718
124	0xbe651f77	-0.22375284
125	0x3e117312	0.14204052
126	0xbe368f61	-0.17828132
127	0x3ebd2443	0.36941728
128	0xbede0180	-0.4336052
129	0x3edee0c1	0.4353085
130	0xbeae5534	-0.3404938
131	0xbdcf7737	-0.1013016
132	0x3e73996f	0.23788999
133	0xbe08f138	-0.13373268
134	0x3e9d57ba	0.30730993
135	0xbeb2fc7d	-0.34958258
136	0x3ee5a2e7	0.44850847
137	0x3ce5a108	0.028030887
138	0x3e9797dd	0.2960805
139	0xbd6895de	-0.05678355
140	0xb487eec3	-2.5319432e-07
141	0x3e11c426	0.14234981
142	0x3e335b0b	0.17515199
143	0xbeba1e44	-0.36351216
144	0xbe0ad955	-0.13559468
145	0x3e8addff	0.27122495
146	0xbe1ec97f	-0.15506552
147	0x3ecd722a	0.40126163
148	0xbed390c8	-0.41321397
149	0x3d7df663	0.06200255
150	0xbd62a232	-0.055330463
151	0xbdcc89cc	-0.0998722
152	0xbeb02cae	-0.34409088
153	0xbe7aa97f	-0.2447872
154	0xbdee28a4	-0.11628845
155	0xbe590736	-0.21194157
156	0x3dbc2a37	0.09187739
157	0x3ee1c5f9	0.44096354
158	0x3ea274ea	0.31729823
159	0x3b300870	0.0026860498
160	0xbe84da95	-0.25948015
161	0xbdd50b23	-0.10402515
162	0x3e81ebab	0.25375113
163	0x3e0ebf14	0.13940078
164	0x3ec27753	0.37981662
165	0xbea23f99	-0.31689146
166	0x3ea85e9b	0.32884678
167	0x3ea4f723	0.322198
168	0x3d6c2516	0.057652555
169	0xbeca2b5e	-0.39486212
170	0x3dc07fd1	0.09399379
171	0x3ea6f3e3	0.32607946
172	0x3c669c8b	0.014075409
173	0x3eaeb5a5	0.3412296
174	0xb61b4127	-2.3134724e-06
175	0x3d0ad430	0.033893764
176	0xbe2abb8c	-0.16673106
177	0xbebc4541	-0.36771587
178	0x3e1a7da0	0.15086985
179	0x36150e4b	2.221105e-06
180	0xbeb06727	-0.344537
181	0x3e5226ff	0.20522688
182	0xbe68251f	-0.2267041
183	0x3da360fd	0.079774834
184	0xbe27d3ee	-0.16389439
185	0xbd7bf63c	-0.061514124
186	0xbede917b	-0.43470368
187	0xbeca8cc2	-0.39560515
188	0x3a14e80d	0.000568033
189	0x3e4bdf4c	0.199094
190	0xbeabdc01	-0.33566287
191	0xbc40cd4d	-0.0117676975
192	0x3e1973e0	0.14985609
193	0x3e97da30	0.2965865
194	0x3e81d45c	0.2535733
195	0x3e9ddda9	0.30833176
196	0xbed4eb4f	-0.41585776
197	0x3edfeb54	0.4373423
198	0x3e8da21b	0.2766274
199	0x3ed8ab4c	0.4231819
200	0x3ed7f8ff	0.42182156
201	0xbebf561e	-0.3737039
202	0xbe53841e	-0.20655867
203	0x3ea27ab1	0.3173423
204	0xbcf0154b	-0.029307028
205	0x3ed90e64	0.42393792
206	0xb7032246	-7.816188e-06
207	0xbeab7ad1	-0.3349214
208	0x3d6523ae	0.05594223
209	0xb9166370	-0.00014342158
210	0x3e91b779	0.2846029
211	0xbe0ad4a5	-0.1355768
212	0xbdab9fa4	-0.083800584
213	0xbdf956a8	-0.121747315
214	0xbea97c23	-0.3310252
215	0x3dc814c2	0.09769584
216	0xbd0a891c	-0.033822164
217	0x3ec4b837	0.38421795
218	0xbe08e555	-0.13368733
219	0x3ea11402	0.31460577
220	0xbe82f419	-0.25576857
221	0x353298f0	6.653272e-07
222	0xbed1f991	-0.41010717
223	0x3e9459bd	0.28974715
224	0xbe9b2e6e	-0.3030886
225	0xbeb1373a	-0.34612447
226	0x3e424608	0.18972027
227	0x3e98938e	0.29800075
228	0xbec8260a	-0.39091522
229	0x3ed9d6c8	0.42546678
230	0x3d8fac2e	0.070152625
231	0x3d0bc192	0.03412015
232	0x3cb8fab2	0.022580478
233	0x3c91ad1d	0.017782742
234	0xb66dcc21	-3.543457e-06
235	0x35e1b4d6	1.6816437e-06
236	0x3ee2b8c4	0.4428159
237	0xbe1712a5	-0.14753206
238	0x3ea19ba3	0.31564054
239	0xbe64f401	-0.22358705
240	0xbe50f061	-0.20404197
241	0x3e9391ab	0.28822073
242	0x3eb1f20d	0.34754983
243	0xbc1142fd	-0.008866069
244	0x3e7b3a6d	0.24534006
245	0x3de7e26f	0.11322486
246	0x3e58410a	0.2111856
247	0xbdcd2326	-0.1001647
248	0xbc944978	-0.018101439
249	0xbe12db7e	-0.14341542
250	0x3da44d9a	0.08022614
251	0xbdb63347	-0.08896499
252	0x3dfa74cf	0.12229311
253	0xbdaca3e8	-0.084297
254	0x3e8da392	0.27663857
255	0xbde13048	-0.10995537

layers.1.weight f4 [256]
0	0x3f7e444a	0.9932295
1	0x3f7f3d3e	0.99702823
2	0x3f80934b	1.004495
3	0x3f7f99ab	0.99843854
4	0x3f7e86cf	0.9942445
5	0x3f7ead7c	0.99483466
6	0x3f7d87db	0.99035424
7	0x3f7efa0d	0.996003
8	0x3f7fa2b3	0.99857634
9	0x3f81321e	1.009342
10	0x3f7fa105	0.9985507
11	0x3f7f5007	0.9973149
12	0x3f7f6c85	0.9977496
13	0x3f809413	1.0045189
14	0x3f7f53bf	0.9973716
15	0x3f80d802	1.006592
16	0x3f801dad	1.0009056
17	0x3f7e5f24	0.99363923
18	0x3f804586	1.0021217
19	0x3f800b2a	1.0003407
20	0x3f7ff533	0.9998352
21	0x3f801afe	1.0008237
22	0x3f80e2c1	1.00692
23	0x3f8134e6	1.0094268
24	0x3f7d0a6c	0.9884403
25	0x3f7fc5df	0.999113
26	0x3f7eaa82	0.99478924
27	0x3f809647	1.0045861
28	0x3f7f2df6	0.99679506
29	0x3f8000d6	1.0000255
30	0x3f80404d	1.0019623
31	0x3f7f6520	0.9976368
32	0x3f7f0e77	0.99631447
33	0x3f7f5b04	0.99748254
34	0x3f7f0e2f	0.9963102
35	0x3f7fbe91	0.99900156
36	0x3f80270a	1.0011914
37	0x3f80077d	1.0002285
38	0x3f7eb2c4	0.99491525
39	0x3f7ef009	0.99585015
40	0x3f8162e4	1.0108304
41	0x3f80aec7	1.0053338
42	0x3f81115e	1.0083425
43	0x3f804836	1.0022037
44	0x3f81249d	1.0089298
45	0x3f7f1d20	0.99653816
46	0x3f812777	1.0090169
47	0x3f80bfaf	1.0058497
48	0x3f8087a3	1.0041393
49	0x3f80930c	1.0044875
50	0x3f810518	1.007968
51	0x3f8023c4	1.0010915
52	0x3f7fb0f6	0.99879396
53	0x3f80689e	1.0031927
54	0x3f814bde	1.0101278
55	0x3f7dfa28	0.99209833
56	0x3f808561	1.0040704
57	0x3f7e5938	0.99354887
58	0x3f7fbe04	0.99899316
59	0x3f7d37d8	0.98913336
60	0x3f7ffec5	0.9999812
61	0x3f7e26bf	0.9927787
62	0x3f7f8adf	0.99821275
63	0x3f7daeeb	0.9909503
64	0x3f808288	1.0039835
65	0x3f7df56e	0.9920262
66	0x3f80024e	1.0000703
67	0x3f7e0c36	0.9923738
68	0x3f808828	1.0041552
69	0x3f8085d4	1.0040841
70	0x3f7e8f39	0.9943729
71	0x3f80dfd1	1.0068303
72	0x3f806966	1.0032165
73	0x3f812cb2	1.0091765
74	0x3f7ec6cc	0.9952209
75	0x3f80badb	1.0057024
76	0x3f80d801	1.0065919
77	0x3f7f49af	0.9972181
78	0x3f7e2fc4	0.99291635
79	0x3f8031b2	1.0015166
80	0x3f7e8d8c	0.99434733
81	0x3f801ce1	1.0008813
82	0x3f7daf6c	0.990958
83	0x3f80c26e	1.0059335
84	0x3f7f2f71	0.99681765
85	0x3f7f960c	0.9983833
86	0x3f7f8275	0.99808437
87	0x3f7d8a7e	0.9903945
88	0x3f804667	1.0021485
89	0x3f802779	1.0012046
90	0x3f81180a	1.0085461
91	0x3f826112	1.0185874
92	0x3f7f0f89	0.9963308
93	0x3f813e73	1.0097183
94	0x3f7e7a79	0.9940563
95	0x3f7f03af	0.99614996
96	0x3f813e7b	1.0097193
97	0x3f814fd7	1.010249
98	0x3f8014af	1.0006312
99	0x3f7eb447	0.9949383
100	0x3f7fbe42	0.99899685
101	0x3f80e789	1.0070659
102	0x3f7fc234	0.99905705
103	0x3f7f3aa0	0.9969883
104	0x3f7f0169	0.99611527
105	0x3f7d92e6	0.99052274
106	0x3f808ef0	1.0043621
107	0x3f7fdc54	0.9994557
108	0x3f8042d0	1.002039
109	0x3f7f511b	0.9973313
110	0x3f803517	1.0016202
111	0x3f7fd47e	0.9993361
112	0x3f7e3cb8	0.993114
113	0x3f800d6d	1.0004097
114	0x3f7e6761	0.99376494
115	0x3f81bcbd	1.0135723
116	0x3f7f6c95	0.9977506
117	0x3f7fd4d7	0.9993414
118	0x3f8084ce	1.0040529
119	0x3f80441c	1.0020785
120	0x3f80b23f	1.0054396
121	0x3f808ef8	1.0043631
122	0x3f7de505	0.9917758
123	0x3f7f85e8	0.998137
124	0x3f7e28ed	0.992812
125	0x3f7efcac	0.99604297
126	0x3f7f8d5d	0.9982508
127	0x3f7f32f8	0.9968715
128	0x3f7e9a8a	0.9945456
129	0x3f7e6e39	0.99386936
130	0x3f80cb9a	1.0062134
131	0x3f7f7b8f	0.9979791
132	0x3f7eeef3	0.9958336
133	0x3f7dee17	0.9919142
134	0x3f7c57b1	0.98571306
135	0x3f7e29a0	0.99282265
136	0x3f80a6f3	1.0050949
137	0x3f7dfa53	0.9921009
138	0x3f806d39	1.0033332
139	0x3f802d4a	1.0013821
140	0x3f7fbb6a	0.99895346
141	0x3f7e400d	0.99316484
142	0x3f7f521a	0.9973465
143	0x3f808760	1.0041313
144	0x3f80f54c	1.0074859
145	0x3f7eec2c	0.9957912
146	0x3f7f34c5	0.99689895
147	0x3f805314	1.0025353
148	0x3f7f599d	0.99746114
149	0x3f7fc48e	0.99909294
150	0x3f81bae4	1.013516
151	0x3f80efcd	1.0073181
152	0x3f7bd060	0.9836483
153	0x3f8151d1	1.0103093
154	0x3f7ff33e	0.99980533
155	0x3f7fce49	0.9992414
156	0x3f7f833c	0.9980962
157	0x3f7e9a68	0.99454355
158	0x3f7fe858	0.99963903
159	0x3f807c95	1.003802
160	0x3f80e763	1.0070614
161	0x3f812281	1.0088655
162	0x3f7ef010	0.99585056
163	0x3f7e620a	0.99368346
164	0x3f804c16	1.002322
165	0x3f7da1d0	0.9907503
166	0x3f808574	1.0040727
167	0x3f802aaa	1.001302
168	0x3f81a674	1.0128922
169	0x3f7f6c7c	0.9977491
170	0x3f7fb64b	0.9988753
171	0x3f805964	1.002728
172	0x3f7fd79c	0.9993837
173	0x3f803d3e	1.001869
174	0x3f80b041	1.0053788
175	0x3f802f2f	1.0014399
176	0x3f807e24	1.0038495
177	0x3f7f5bf5	0.9974969
178	0x3f827235	1.0191103
179	0x3f7e7ca1	0.9940892
180	0x3f80e6d7	1.0070447
181	0x3f7e69b7	0.9938006
182	0x3f810486	1.0079505
183	0x3f7d53c0	0.9895592
184	0x3f7d3d6f	0.98921865
185	0x3f8042eb	1.0020422
186	0x3f7f8e46	0.9982647
187	0x3f801c48	1.0008631
188	0x3f7f3161	0.9968472
189	0x3f8037ee	1.0017068
190	0x3f7f17f8	0.9964595
191	0x3f7e1027	0.99243397
192	0x3f7ead7b	0.9948346
193	0x3f7e5d9c	0.99361587
194	0x3f815d6a	1.0106633
195	0x3f8055ee	1.0026224
196	0x3f8012f0	1.0005779
197	0x3f811b32	1.0086424
198	0x3f80f9e1	1.0076257
199	0x3f80c2dc	1.0059466
200	0x3f8010d1	1.0005132
201	0x3f81d47c	1.014297
202	0x3f802f06	1.001435
203	0x3f80bcdd	1.0057636
204	0x3f7ff26f	0.999793
205	0x3f7f82d3	0.99808997
206	0x3f7f2da5	0.99679023
207	0x3f800c44	1.0003743
208	0x3f804870	1.0022106
209	0x3f7f160e	0.9964303
210	0x3f7d4dea	0.9894701
211	0x3f7f03e5	0.9961532
212	0x3f809ec6	1.0048454
213	0x3f801512	1.000643
214	0x3f800445	1.0001303
215	0x3f7d98b6	0.99061143
216	0x3f7eb061	0.9948788
217	0x3f7f56a6	0.9974159
218	0x3f7e35d6	0.993009
219	0x3f80cd20	1.0062599
220	0x3f7f4d10	0.99726963
221	0x3f7eac5a	0.9948174
222	0x3f7d180b	0.9886481
223	0x3f7fd02a	0.9992701
224	0x3f811fe8	1.0087862
225	0x3f7e57c7	0.9935269
226	0x3f806e79	1.0033714
227	0x3f80b812	1.0056174
228	0x3f7db4a8	0.99103785
229	0x3f81bcb7	1.0135716
230	0x3f800415	1.0001246
231	0x3f80e885	1.0070959
232	0x3f7ed23a	0.9953953
233	0x3f7f5f4d	0.9975479
234	0x3f7f7840	0.9979286
235	0x3f80428e	1.0020311
236	0x3f7f8fed	0.9982899
237	0x3f7ee705	0.9957126
238	0x3f8130c9	1.0093013
239	0x3f807d0b	1.003816
240	0x3f7dea57	0.991857
241	0x3f7fa67a	0.998634
242	0x3f819301	1.0122987
243	0x3f808f78	1.0043783
244	0x3f7fbdf2	0.9989921
245	0x3f7ff331	0.99980456
246	0x3f7eebb8	0.9957843
247	0x3f8093cf	1.0045108
248	0x3f80660e	1.0031145
249	0x3f7ef0a0	0.99585915
250	0x3f7e0bf5	0.99236995
251	0x3f814eff	1.0102233
252	0x3f7e374e	0.9930314
253	0x3f800ce1	1.000393
254	0x3f80d708	1.0065622
255	0x3f807b70	1.003767

layers.1.bias f4 [256]
0	0xbb8aa599	-0.0042311666
1	0x3a03bbaa	0.00050252175
2	0x3bb6a740	0.005574137
3	0x3be111c5	0.0068685734
4	0x3a903871	0.0011003149
5	0xbc06aa83	-0.008219364
6	0xba86aa14	-0.0010274076
7	0x3b9a5427	0.004709739
8	0xbbf353f7	-0.007425781
9	0xbc36d932	-0.011160182
10	0x3a9aebc4	0.0011819531
11	0xbbbb9105	-0.005724075
12	0xbb3999f8	-0.0028320532
13	0xbc15f614	-0.009152908
14	0xbc07d15a	-0.008289659
15	0xbc4d8fb9	-0.012546473
16	0x39fa71c2	0.00047768472
17	0xbb7a5915	-0.003820007
18	0xbc3197f0	-0.010839447
19	0x3bd8302f	0.006597541
20	0xbc0a120e	-0.008427156
21	0x3ba86610	0.00513912
22	0xbc0ae383	-0.008477095
23	0x3c2463f6	0.010033598
24	0x3c496b0e	0.01229359
25	0x3c0110e0	0.0078775585
26	0xb8c952f5	-9.599879e-05
27	0x3bfdc151	0.0077439924
28	0xbb2ee1e8	-0.0026684944
29	0x3990c220	0.00027610455
30	0x3b7a5d8b	0.0038202729
31	0x3c11d943	0.008901897
32	0xbb86c9c9	-0.00411341
33	0xbc0499f0	-0.008093342
34	0xba12a12c	-0.00055934745
35	0x3ba91e25	0.005161064
36	0xbb0afb9d	-0.0021207102
37	0xbc0a24f8	-0.008431666
38	0xbb8901fd	-0.004181145
39	0x3bb30735	0.0054635056
40	0x3c22ade5	0.009929155
41	0x3bd74f4a	0.0065707313
42	0xbb7c4629	-0.0038493967
43	0x3c051f74	0.008125175
44	0x3c3ea025	0.011634861
45	0x3b042a60	0.002016686
46	0x3bf0d264	0.0073492993
47	0x3c063b6e	0.00819288
48	0x3bc6f2e2	0.0060714344
49	0x3b9023fb	0.0043988205
50	0xbc2a643f	-0.010399877
51	0xbb8c11ec	-0.0042745974
52	0x3bb9ae93	0.005666563
53	0xbba57f32	-0.0050505633
54	0x3c24680b	0.010034571
55	0x3b9d6f61	0.004804537
56	0x3bbd431b	0.005775822
57	0xba0f27c3	-0.0005460942
58	0x3b5dcd8e	0.0033844444
59	0x3be85538	0.007090237
60	0xbabdf1d5	-0.0014491627
61	0xbbbd1b6d	-0.0057710917
62	0xbaa610a0	-0.001266975
63	0xbb2d58d1	-0.0026450644
64	0xbb69816c	-0.003563012
65	0x3ba67f0a	0.005081062
66	0x3c3cda2a	0.011526624
67	0x3bdf2f86	0.006811085
68	0xbbe26603	-0.0069091334
69	0x3c01e065	0.007927035
70	0xbc2ee6d6	-0.010675153
71	0x3be4faf7	0.006987925
72	0x3b6738f4	0.003528175
73	0x3b62482b	0.0034527879
74	0x3b946df8	0.004529711
75	0xbc59388e	-0.013258113
76	0xbbda78d8	-0.0066672377
77	0x3b0e75d2	0.0021737707
78	0x3b6f230b	0.0036489393
79	0xbbcaaab0	-0.0061848983
80	0xbbf4618d	-0.007457918
81	0xbac38548	-0.001491704
82	0x3ba85673	0.0051372587
83	0x3ba99031	0.0051746597
84	0x3c0c4458	0.008561216
85	0x388c4eac	6.690374e-05
86	0xbb891200	-0.004183054
87	0xbbd1bf80	-0.0064010024
88	0xba46435f	-0.00075631397
89	0x3bc31084	0.0059528966
90	0xbbd3dd43	-0.0064655854
91	0x3bbe1e88	0.0058019795
92	0xbbbd7bd7	-0.005782585
93	0x3c4f9d9d	0.012671855
94	0x3c14558f	0.009053602
95	0x3ba67b92	0.0050806487
96	0xbc322952	-0.010874109
97	0xbb3dc43c	-0.0028956076
98	0xbb6d6c29	-0.0036227799
99	0x3c0300bc	0.007995781
100	0x3bb7a5b6	0.005604471
101	0x3bbbce52	0.0057313824
102	0x3b0caa77	0.002146391
103	0xba82d052	-0.0009980297
104	0x3b468b09	0.0030295274
105	0x3c0a866a	0.008454898
106	0x3b667d19	0.003516978
107	0xbb629d49	-0.0034578613
108	0xbae49d43	-0.0017441887
109	0x3c14f605	0.009091859
110	0xbb8d35bf	-0.0043093855
111	0x3938b7ec	0.00017616124
112	0x3a440b2d	0.0007478472
113	0x3bfcab24	0.0077108312
114	0xbc456203	-0.012047294
115	0xbc3d8112	-0.011566417
116	0x3b710ffa	0.0036783204
117	0x3a9e4c25	0.0012077136
118	0x3bf49f03	0.0074652447
119	0xbaf001e2	-0.0018311108
120	0xbc0695c5	-0.008214419
121	0x3b7c4951	0.0038495848
122	0x3bb7c72c	0.00560846
123	0x3bcf8a18	0.0063336007
124	0x3a10a21d	0.0005517321
125	0xbb819e06	-0.0039556054
126	0x3c48e763	0.012262198
127	0x3b7110bb	0.0036783654
128	0xbbd45e48	-0.0064809658
129	0xbb5fcb1a	-0.0034148158
130	0x3bfd81ae	0.0077364063
131	0xb8183496	-3.62886e-05
132	0xbba2212e	-0.004947803
133	0xbb6ab5fa	-0.0035814033
134	0xbb9dee20	-0.0048196465
135	0xbaa4146d	-0.0012518294
136	0xbb32714f	-0.0027228182
137	0x3c707ad9	0.014677727
138	0xbbbc57f6	-0.0057477904
139	0xbae17f7c	-0.0017204131
140	0x3a9ffc78	0.0012205979
141	0x3bca48ca	0.006173228
142	0xb9579325	-0.00020558813
143	0x3bddbd6f	0.006766967
144	0xba7de152	-0.00096847594
145	0xbbd1d97b	-0.0064040995
146	0x3ba72cdf	0.0051017846
147	0x3aac73bd	0.0013157051
148	0xb966bd3c	-0.00022005005
149	0xba093258	-0.0005233637
150	0x3b9557f9	0.0045576063
151	0x3bded6a7	0.006800491
152	0xbc06548c	-0.0081988685
153	0xbaceaedb	-0.0015768664
154	0xbba58402	-0.005051137
155	0x3c09c71e	0.00840929
156	0xbb4199f4	-0.0029541226
157	0x3b379dc8	0.002801763
158	0x3b8a0e26	0.0042131124
159	0xbb509186	-0.003182502
160	0xbc0880ba	-0.008331472
161	0xbb8a6ce1	-0.004224405
162	0x383b8524	4.470827e-05
163	0x3a807fee	0.0009803751
164	0x3b54aea5	0.003245273
165	0x3bf4c866	0.0074701784
166	0xbbae4fcc	-0.005319571
167	0xbbc20365	-0.005920815
168	0x3c074e97	0.008258483
169	0x3bf0ac5c	0.0073447656
170	0x3c339503	0.01096082
171	0x3b21b504	0.0024674544
172	0x3c653fe5	0.013992284
173	0xbb65da62	-0.0035072793
174	0x3c19b556	0.009381613
175	0x3bd4bfce	0.0064925915
176	0x3b2cd0cf	0.0026369577
177	0x3bc432ae	0.005987487
178	0x3b76fcc3	0.0037687279
179	0x3b86236d	0.0040935786
180	0xbb82a957	-0.003987472
181	0x3c000348	0.007813282
182	0x3c1536b3	0.00910728
183	0xbc0aefdc	-0.0084800385
184	0x3c2202ee	0.009888394
185	0xbbe56b4a	-0.0070013152
186	0x3a55dc54	0.00081581366
187	0xbc42b2c6	-0.011883443
188	0x3b00a59e	0.0019629966
189	0xbc20b79c	-0.009809401
190	0xb98b81e2	-0.00026608916
191	0xbbc1bb77	-0.00591224
192	0x3bc0a91f	0.005879536
193	0xbbe02f45	-0.0068415725
194	0xbba1775d	-0.0049275593
195	0xbc168c91	-0.009188787
196	0x3bbf6d47	0.0058418843
197	0x3a8eed04	0.0010904376
198	0xbbff338c	-0.0077881273
199	0x3bdbf8a5	0.0067129903
200	0x3b878ee7	0.0041369083
201	0x3c064ee8	0.008197524
202	0xbbea32e1	-0.0071471785
203	0x3bad33e1	0.0052857255
204	0x3c0c8160	0.008575767
205	0xbb0f56a4	-0.002187171
206	0xbbb43469	-0.005499412
207	0x3a904e4b	0.0011009661
208	0xbc1fa20f	-0.009743228
209	0x3b28bdce	0.0025747898
210	0xbbcc71a7	-0.0062391344
211	0x3c007e49	0.007842609
212	0xbc083449	-0.008313247
213	0xbac66fc8	-0.0015139515
214	0xbb0a4ef6	-0.0021104193
215	0xbbeee301	-0.0072902446
216	0x3ba23453	0.004950085
217	0x3a99a096	0.0011720832
218	0x3c3a0dc9	0.011355826
219	0x3c806d17	0.015677018
220	0xbb95d082	-0.004571975
221	0x3c25fac3	0.010130587
222	0xbb243c19	-0.0025060235
223	0xbae30589	-0.0017320375
224	0x3bcf6c4e	0.0063300496
225	0x3c61190d	0.013738883
226	0xbb9dd60d	-0.0048167766
227	0xbbf12afa	-0.0073598595
228	0x3adf8506	0.0017053194
229	0x3c386324	0.011254106
230	0xba352892	-0.00069106475
231	0xbbb63a8c	-0.0055611786
232	0xbb5a73b3	-0.0033333122
233	0xbc139e03	-0.009009841
234	0x3b9f0da8	0.004853923
235	0x3b86d76b	0.0041150353
236	0x3c00f519	0.007870936
237	0x3a8b33ef	0.0010620336
238	0xb99d572b	-0.0003001032
239	0xbb0bde3a	-0.0021342174
240	0xbb23cb46	-0.0024992987
241	0xbb510ece	-0.0031899693
242	0xbc46ad76	-0.012126317
243	0x3c42f381	0.011898876
244	0xbb25b274	-0.0025283368
245	0x3a1f4e90	0.00060770754
246	0x3bff8b0f	0.0077985595
247	0x3bdcca52	0.0067379856
248	0x3bc5aa8a	0.0060322927
249	0x3bfaf970	0.00765913
250	0xbbf406fd	-0.007447122
251	0xbb936933	-0.0044986247
252	0xbb867c86	-0.0041042
253	0xbb345f30	-0.0027522556
254	0xbb379d35	-0.0028017287
255	0xbb9099f0	-0.004412882

layers.1.running_mean f4 [256]
0	0x3e024d60	0.12724829
1	0x3da3b5af	0.07993638
2	0xbd117845	-0.03551509
3	0xbb8a4f41	-0.0042208736
4	0xbe9e34f3	-0.30899772
5	0xbe9b9257	-0.30385086
6	0xbed22d45	-0.41050163
7	0xbe8d7161	-0.27625564
8	0x3e28e654	0.16494113
9	0xbed09b61	-0.40743545
10	0xbe4ca799	-0.19985808
11	0xbbb85df9	-0.005626437
12	0x3cca2b65	0.024678895
13	0xbdf04cd7	-0.11733406
14	0x3ea37bd2	0.31930405
15	0xbe2f61c5	-0.1712714
16	0x3d0bed8c	0.03416209
17	0xbdf2741b	-0.118385516
18	0x3ebdd3ba	0.37075597
19	0x3e2a172d	0.16610403
20	0xba4b422a	-0.00077536947
21	0xbc81fb65	-0.015866945
22	0x3e575865	0.21029814
23	0xbcc3a209	-0.023880975
24	0x3c8f43ee	0.017488446
25	0xbe904241	-0.28175548
26	0x3edd98a4	0.43280518
27	0xbe56b414	-0.20967132
28	0xbe173997	-0.14768063
29	0x3c388685	0.011262541
30	0xbd061fb5	-0.032745082
31	0x3e51dce5	0.20494421
32	0x3eadfba5	0.33981052
33	0x3e8fe15e	0.2810163
34	0x3e9110e8	0.2833321
35	0x3e33fd53	0.17577104
36	0x3ccdea8b	0.025136253
37	0xbea20df2	-0.31651264
38	0x3ed36c86	0.41293734
39	0x3eb9d93e	0.36298555
40	0x3e97519c	0.2955445
41	0x3e950b1c	0.29110038
42	0xbdec368f	-0.11533844
43	0xbed604f7	-0.41800663
44	0x3e8b2b79	0.27181605
45	0xbde9aa1f	-0.11409401
46	0xbec6ba81	-0.38814166
47	0x3ece6457	0.40310928
48	0x3d94f93e	0.07274102
49	0xbe5f7f43	-0.2182589
50	0xbe629e3d	-0.22130676
51	0xbe6ca3a2	-0.23109296
52	0x3e313d94	0.17308646
53	0xbe3e3c93	-0.18577795
54	0xbe81a92f	-0.2532439
55	0xbe006978	-0.12540233
56	0x3e33d590	0.17561936
57	0x3eb46678	0.35234427
58	0x3e67c87b	0.22635071
59	0xbe770f5b	-0.24126951
60	0x3dc02b80	0.09383297
61	0x3ecd8def	0.4014735
62	0x3e829a21	0.25508216
63	0xbe8e5bb4	-0.2780434
64	0x3e72f85d	0.23727556
65	0x3e8aa635	0.2707993
66	0xbeae5951	-0.34052518
67	0xbdbffe08	-0.093746245
68	0xbe6698ae	-0.2251918
69	0xbebe426c	-0.3716005
70	0xbe8f895c	-0.28034484
71	0x3cfb6952	0.03068987
72	0x3ea9584e	0.33075184
73	0x3e8a1d00	0.2697525
74	0xbebebcf1	-0.37253526
75	0xbeb3dc40	-0.35128975
76	0x3b5c64e3	0.003362947
77	0x3d33fdfb	0.043943387
78	0x3e325b00	0.17417526
79	0xbeb20dd2	-0.3477617
80	0xbedfd4fb	-0.4371718
81	0x3be87e21	0.007095114
82	0xbed172ed	-0.40907994
83	0x3eb5197b	0.35371003
84	0xbedbdbe4	-0.429412
85	0x3d4c5c77	0.04989287
86	0x3dcbefe4	0.09957865
87	0xbe479cc0	-0.19493389
88	0xbe40039e	-0.1875138
89	0xbeeae95c	-0.45881164
90	0x3eaecdc1	0.34141353
91	0x3ed41e81	0.41429523
92	0x3c62788f	0.013822689
93	0x3ec9be92	0.39403206
94	0x3e922321	0.28542426
95	0xbe4d64a3	-0.20057921
96	0xbebb23d6	-0.36550778
97	0xbe003fc8	-0.1252433
98	0x3e265423	0.16243033
99	0x3dbb487d	0.091446854
100	0xbe98e3d7	-0.29861328
101	0x3e508e11	0.20366694
102	0x3dd94cd5	0.10610358
103	0xbeafe0e3	-0.34351262
104	0x3d3c0cd8	0.045910686
105	0xbe18e3e5	-0.14930685
106	0xbe089b21	-0.13340427
107	0x3ee79ff9	0.45239237
108	0xbe84eb60	-0.25960827
109	0xbde63b4e	-0.1124178
110	0x3e534da7	0.20635091
111	0xbe244733	-0.16042785
112	0xbd611bcf	-0.05495816
113	0xbcdaa3d1	-0.026689442
114	0xbd290354	-0.04126294
115	0x3e89b7e7	0.2689812
116	0x3ec9e3a8	0.394315
117	0xbec7b07e	-0.3900184
118	0xbed346f4	-0.4126507
119	0x3e9a0aa2	0.30086237
120	0x3abfb276	0.0014625329
121	0xbe9c569a	-0.30534822
122	0x3da86a77	0.082234316
123	0xbed0dd43	-0.4079381
124	0xbe64a8b6	-0.22329983
125	0x3e10e492	0.14149693
126	0xbe30d28b	-0.17267816
127	0x3ec086b0	0.37602758
128	0xbedf566c	-0.43620622
129	0x3ee5db9b	0.44894108
130	0xbeb1d2bd	-0.34731093
131	0xbdd03903	-0.10167124
132	0x3e67ded9	0.22643603
133	0xbdf9cb10	-0.12196934
134	0x3ea2de9e	0.31810468
135	0xbeb4b51e	-0.3529443
136	0x3ee49376	0.44643754
137	0x3cc66209	0.024216669
138	0x3e975293	0.29555187
139	0xbd7b73bd	-0.061389674
140	0xbbc79159	-0.006090325
141	0x3e165af2	0.1468313
142	0x3e27a6b1	0.16372181
143	0xbeba7ed3	-0.36424884
144	0xbe0d2750	-0.13784528
145	0x3e855d87	0.26047918
146	0xbe24f474	-0.16108876
147	0x3ed39a85	0.41328827
148	0xbed9be33	-0.42527923
149	0x3d76c15f	0.060243007
150	0xbd4d91b6	-0.05018779
151	0xbdcdef29	-0.10055382
152	0xbeb0794e	-0.34467548
153	0xbe7efe04	-0.24901587
154	0xbe009e9d	-0.12560506
155	0xbe55ad3e	-0.20866868
156	0x3db13a5c	0.08653709
157	0x3edf53c1	0.43618587
158	0x3e9ff99a	0.31245118
159	0xbab20698	-0.0013582287
160	0xbe83ccdf	-0.25742242
161	0xbdd77b03	-0.105215095
162	0x3e8788d6	0.26471585
163	0x3e166b13	0.14689283
164	0x3ec340c0	0.38135338
165	0xbea84988	-0.328686
166	0x3ea6a592	0.32548195
167	0x3ea2692c	0.31720865
168	0x3d81bc4a	0.063347414
169	0xbec632c2	-0.387106
170	0x3dbadc78	0.09124082
171	0x3ea81b11	0.3283315
172	0x3bf13e6b	0.007362177
173	0x3eaae012	0.33374077
174	0x3ba814ae	0.0051294183
175	0x3d048db4	0.0323617
176	0xbe26a664	-0.1627441
177	0xbec0e1e6	-0.37672347
178	0x3e18fb03	0.14939503
179	0x3bc88542	0.006119401
180	0xbead19d8	-0.3380878
181	0x3e4c62b4	0.19959527
182	0xbe6b3334	-0.22968751
183	0x3d9418c8	0.07231289
184	0xbe1e238e	-0.1544325
185	0xbd61e52c	-0.055150196
186	0xbeda77f9	-0.42669657
187	0xbec72760	-0.38897228
188	0xba117337	-0.00055484794
189	0x3e44f664	0.19234616
190	0xbeaf810c	-0.34278142
191	0xbc956a47	-0.018239154
192	0x3e1b87cf	0.15188526
193	0x3e9a2a47	0.3011038
194	0x3e80cf16	0.25157994
195	0x3e9e9783	0.3097497
196	0xbed99a61	-0.42500594
197	0x3edc8d43	0.43076524
198	0x3e8e9e2c	0.2785505
199	0x3edc8f28	0.4307797
200	0x3edc81a5	0.4306766
201	0xbec3f6d3	-0.3827425
202	0xbe49020a	-0.19629684
203	0x3ea66d30	0.32505178
204	0xbccd6bf7	-0.025075896
205	0x3ed6bfef	0.4194331
206	0x3bae7eaa	0.005325158
207	0xbeae98e5	-0.34101024
208	0x3d82d31b	0.063879214
209	0x3bf07621	0.007338301
210	0x3e900caa	0.28134662
211	0xbe126c71	-0.1429918
212	0xbdba8e15	-0.09109131
213	0xbdf3cd0f	-0.11904346
214	0xbea74bd8	-0.32675052
215	0x3dcdd00e	0.10049449
216	0xbd065ecf	-0.03280526
217	0x3ec1b85e	0.37835974
218	0xbe0544bd	-0.13014503
219	0x3e9d35a3	0.30704984
220	0xbe78fc11	-0.24314906
221	0x3c2314be	0.009953676
222	0xbed0dabd	-0.40791884
223	0x3e90decb	0.28294978
224	0xbea0c32f	-0.31398913
225	0xbeb307a5	-0.3496677
226	0x3e4b3261	0.19843437
227	0x3e95813a	0.29200155
228	0xbece0301	-0.40236667
229	0x3ed48efe	0.41515344
230	0x3d988770	0.07447708
231	0x3d2b3770	0.041800916
232	0x3cd28818	0.02569966
233	0x3cb63d40	0.022246003
234	0x3ba41a91	0.00500805
235	0xbba52b94	-0.0050405953
236	0x3ee6b421	0.45059302
237	0xbe1d6e09	-0.15374006
238	0x3ea4d5f7	0.32194492
239	0xbe716095	-0.23572
240	0xbe489b2b	-0.19590442
241	0x3e9562e5	0.29177013
242	0x3eaee76a	0.3416093
243	0xbc94d579	-0.018168198
244	0x3e8204cd	0.25394288
245	0x3de1a3f9	0.110176034
246	0x3e652fb5	0.2238148
247	0xbdc55fe9	-0.09637434
248	0xbc995afb	-0.01872014
249	0xbe1b9a60	-0.15195608
250	0x3da136a5	0.07871751
251	0xbdc5b3cc	-0.09653434
252	0x3dfcd69f	0.12345623
253	0xbdb29b3a	-0.08721013
254	0x3e8ed1f6	0.27894562
255	0xbdcaa12d	-0.09894023

layers.1.running_var f4 [256]
0	0x3e14ef25	0.14544351
1	0x3e67db57	0.22642265
2	0x3d734c34	0.059398845
3	0x3df8f6c1	0.121564396
4	0x3eab8677	0.33501026
5	0x3e8eefb2	0.27917248
6	0x3e78b4a7	0.24287663
7	0x3e33ff80	0.17577934
8	0x3f0eae6b	0.5573489
9	0x3ef6660a	0.48124725
10	0x3f61ba1f	0.88174623
11	0x3e811a68	0.2521546
12	0x3ee64dd7	0.44981262
13	0x3e960457	0.29300186
14	0x3ec9fd42	0.39451033
15	0x3eb64ed8	0.35607028
16	0x3dc1349c	0.094338626
17	0x3f285973	0.6576149
18	0x3e0dfdf2	0.13866404
19	0x3e9ee898	0.3103683
20	0x3e015aaa	0.12632242
21	0x3f69c6f6	0.91319215
22	0x3ee54102	0.4477616
23	0x3f394e69	0.7238527
24	0x3ede33d1	0.43398908
25	0x3d7b9579	0.061421845
26	0x3e96c121	0.2944422
27	0x3e553696	0.20821604
28	0x3da75ac4	0.08171609
29	0x3e83e769	0.2576249
30	0x3ed050c0	0.40686607
31	0x3e525090	0.20538545
32	0x3e917ff2	0.28417927
33	0x3e4516f0	0.19247031
34	0x3e469cd4	0.19395763
35	0x3ea7939f	0.32729813
36	0x3e653ec5	0.22387226
37	0x3f2013a3	0.62529963
38	0x3eee5629	0.4655011
39	0x3e092a3f	0.13395022
40	0x3f2c361c	0.67270064
41	0x3f051795	0.5198911
42	0x3d1bcb77	0.038035836
43	0x3f303fb2	0.6884719
44	0x3e8bfa2b	0.273393
45	0x3e446741	0.19180013
46	0x3e1ba07c	0.15197939
47	0x3ec4d547	0.38443968
48	0x3dd8a341	0.10578013
49	0x3f06d577	0.5266947
50	0x3e0c5d90	0.13707566
51	0x3db121cf	0.086490266
52	0x3e5e0d17	0.21684681
53	0x3f09fd8b	0.539025
54	0x3efb21bc	0.49049175
55	0x3ee28055	0.44238535
56	0x3d9945ee	0.07484041
57	0x3e5000fe	0.20312878
58	0x3f3f5dd9	0.74752575
59	0x3f425c87	0.75922436
60	0x3efaffe8	0.49023366
61	0x3e4ebea7	0.20189916
62	0x3f0b5d89	0.544396
63	0x3edef0d3	0.4354311
64	0x3edcb72a	0.43108493
65	0x3e85e62f	0.2615218
66	0x3e3edddb	0.18639319
67	0x3e8be527	0.27323267
68	0x3e566bdd	0.20939584
69	0x3f559837	0.83435386
70	0x3ddd95b5	0.1081957
71	0x3f0ec7d5	0.5577367
72	0x3d538380	0.05163908
73	0x3ddd37d0	0.10801661
74	0x3f72c438	0.94830656
75	0x3dcae541	0.09907008
76	0x3d2c6e45	0.04209735
77	0x3f072aad	0.52799493
78	0x3e7d1460	0.24714804
79	0x3e991141	0.29895976
80	0x3e967be3	0.29391393
81	0x3e58c499	0.21168746
82	0x3edd1feb	0.43188414
83	0x3e761204	0.2403031
84	0x3ef5c674	0.4800297
85	0x3e117151	0.14203383
86	0x3e33fa2c	0.17575902
87	0x3d8849ea	0.06654723
88	0x3ea0fcd0	0.3144288
89	0x3e14ee9d	0.14544149
90	0x3f0142bb	0.5049245
91	0x3dde651a	0.10859127
92	0x3e23aae6	0.15983161
93	0x3e93ab42	0.28841597
94	0x3e6e2a78	0.23258388
95	0x3ea06148	0.3132422
96	0x3e666a3f	0.22501467
97	0x3e4ba034	0.19885331
98	0x3e918cd6	0.28427762
99	0x3e310281	0.17286111
100	0x3e9d5d26	0.3073513
101	0x3e254e8d	0.16143246
102	0x3dcf4807	0.1012116
103	0x3e1159b9	0.14194383
104	0x3e864d23	0.26230726
105	0x3ef7f749	0.4843085
106	0x3d04f6f5	0.03246208
107	0x3f03caf7	0.51481575
108	0x3e226f62	0.15862802
109	0x3ddc8db4	0.10769215
110	0x3e89626c	0.26832902
111	0x3ea07d93	0.31345806
112	0x3ee6faac	0.45113122
113	0x3e456df4	0.19280225
114	0x3f3beec0	0.7341118
115	0x3e778578	0.24172008
116	0x3ddd646a	0.10810168
117	0x3e88572d	0.2662901
118	0x3dad13e5	0.0845106
119	0x3eccc23b	0.39991936
120	0x3ed59e7b	0.41722474
121	0x3ec87c9a	0.39157563
122	0x3e912520	0.28348637
123	0x3eae7cfd	0.34079733
124	0x3e2a2c67	0.166185
125	0x3d0cfbb2	0.034419723
126	0x3ef9dae7	0.48799822
127	0x3e9febb6	0.3123452
128	0x3e7c2515	0.2462352
129	0x3eafbff6	0.34326142
130	0x3f79e4d9	0.9761482
131	0x3c52a123	0.012855801
132	0x3e6b2750	0.22964215
133	0x3e6cafcb	0.23113935
134	0x3e1f1bb9	0.15537919
135	0x3f15eefc	0.58567786
136	0x3eee10df	0.46497247
137	0x3ee857cc	0.45379484
138	0x3e2c6024	0.1683355
139	0x3da87d6f	0.082270496
140	0x3e57baf7	0.21067415
141	0x3f10997d	0.56484205
142	0x3ed8f9ae	0.4237799
143	0x3ec4bd4f	0.3842568
144	0x3ee81671	0.4532962
145	0x3e83d433	0.25747833
146	0x3f16ad55	0.58858234
147	0x3ed735c6	0.42033213
148	0x3ea52ee1	0.32262328
149	0x3eaa70f5	0.33289304
150	0x3dbbf646	0.09177832
151	0x3e8e1290	0.27748537
152	0x3e3250ea	0.17413679
153	0x3f4a1cf9	0.7895046
154	0x3f411b0c	0.75431895
155	0x3e488cf1	0.19585015
156	0x3e60d062	0.21954492
157	0x3e5301c1	0.20606138
158	0x3ec72c32	0.38900906
159	0x3e889259	0.26674154
160	0x3ef47c6a	0.4775117
161	0x3e98256d	0.29716054
162	0x3e92ce86	0.2867319
163	0x3e326467	0.17421113
164	0x3e27db92	0.16392353
165	0x3f451430	0.7698393
166	0x3ea12153	0.31470737
167	0x3e3e6275	0.18592246
168	0x3eb1417c	0.34620273
169	0x3dc9eebf	0.0985999
170	0x3e3d5104	0.18487936
171	0x3e0e8bcf	0.1392052
172	0x3e0b7bf4	0.13621503
173	0x3f48e9b7	0.7848162
174	0x3f1958b0	0.5990095
175	0x3db411cf	0.08792459
176	0x3dd795bc	0.105266064
177	0x3ddb64b3	0.10712566
178	0x3d36abb5	0.044597346
179	0x3dc01ae8	0.09380132
180	0x3f2d08a9	0.6759134
181	0x3f9f1171	1.2427198
182	0x3d844cba	0.06459947
183	0x3f2e2ada	0.68034136
184	0x3f0c8ee9	0.54905564
185	0x3ec31f1b	0.3810967
186	0x3f332bfe	0.69989
187	0x3de42e91	0.11141694
188	0x3ca01340	0.01954043
189	0x3e32291e	0.17398497
190	0x3e651fc2	0.22375396
191	0x3f11e0ba	0.5698353
192	0x3f1fe96f	0.62465566
193	0x3eb9386e	0.36175865
194	0x3cda3a79	0.02663921
195	0x3efa9012	0.48938042
196	0x3eb92032	0.36157376
197	0x3e8c8f73	0.27453193
198	0x3e86bd06	0.26316088
199	0x3f106d7a	0.5641705
200	0x3f31cac8	0.69450045
201	0x3f85f19d	1.046436
202	0x3efadade	0.48995107
203	0x3eab5034	0.33459628
204	0x3ecb2eb3	0.39684066
205	0x3e5c80c3	0.21533494
206	0x3f0b6e44	0.54465127
207	0x3f4b12a7	0.79325336
208	0x3f40997e	0.7523421
209	0x3dedaeb1	0.11605585
210	0x3dd08204	0.101810485
211	0x3dbac175	0.0911893
212	0x3ebc7316	0.36806554
213	0x3e0f6ef0	0.14007163
214	0x3ea0f06c	0.31433427
215	0x3ebd6131	0.36988214
216	0x3e3669cd	0.17813797
217	0x3e9ded4a	0.308451
218	0x3e3b3872	0.18283251
219	0x3e90b902	0.2826615
220	0x3f02ef31	0.5114623
221	0x3e4aa239	0.19788446
222	0x3f12399b	0.5711915
223	0x3f27c241	0.6553078
224	0x3e29ba18	0.16574895
225	0x3e7a5510	0.24446511
226	0x3eeff22f	0.4686446
227	0x3e13ead3	0.14445047
228	0x3e99925e	0.29994482
229	0x3ef1dfef	0.4724116
230	0x3ead6a1e	0.33870023
231	0x3edf0346	0.43557185
232	0x3e00707d	0.12542911
233	0x3df9569d	0.12174723
234	0x3e325a50	0.17417264
235	0x3ee8e126	0.45484275
236	0x3da2cb4d	0.07948933
237	0x3f4f0f2c	0.80882525
238	0x3e8e3bb9	0.2777994
239	0x3e9fe82c	0.3123182
240	0x3e0b943f	0.1363077
241	0x3eb1d91c	0.34735954
242	0x3f145888	0.5794759
243	0x3e05844d	0.1303875
244	0x3f142d04	0.5788119
245	0x3de236d0	0.11045611
246	0x3eeb5c01	0.4596863
247	0x3e212dda	0.15740147
248	0x3d7bee0e	0.061506324
249	0x3e66b15e	0.22528598
250	0x3e1a8201	0.15088655
251	0x3ef8a7a9	0.48565415
252	0x3ea27e7a	0.3173712
253	0x3efe0379	0.49612024
254	0x3ea9a75b	0.33135495
255	0x3f139430	0.5764799

layers.3.weight f4 [128, 128]
0	0x3c55af5b	0.013042296
1	0x3d896b1b	0.06709882
2	0xbdafe2ce	-0.085881814
3	0x3daa8d9b	0.0832779
4	0x3bc3793f	0.0059653814
5	0x3b5a4102	0.0033302908
6	0xbc10d2e3	-0.008839342
7	0x3cd44e68	0.025916293
8	0x3cf7c19a	0.030243684
9	0xbd1dd1ec	-0.038530275
10	0x3d5bbfed	0.05364983
11	0xbb8b38c1	-0.004248709
12	0x3cd58e64	0.026068874
13	0x3db3f0c3	0.08786156
14	0x3b33f4a2	0.0027459045
15	0xbd90918e	-0.07059012
16	0x3c3b9a36	0.011450341
17	0x3d25736c	0.040393278
18	0x3d1376f6	0.036002122
19	0x3d21635b	0.039401393
20	0x3d681a20	0.05666554
21	0xbd670354	-0.05639966
22	0xbd8c0e57	-0.068386726
23	0x3b044657	0.0020183527
24	0xbd299d55	-0.04140981
25	0x3d063679	0.032766793
26	0x3c9af088	0.018913522
27	0xbbd1b28c	-0.0063994583
28	0x3d2fd050	0.04292327
29	0xbd22b4fb	-0.039723378
30	0x3c2def07	0.010616071
31	0xbc9181cc	-0.017762087
32	0x3d872595	0.06598965
33	0xbd45203c	-0.048126444
34	0x3b5184b4	0.0031969966
35	0x3cf23ee1	0.029570999
36	0x3c39895c	0.011324253
37	0xbd88fd7b	-0.066889726
38	0x3d09aecc	0.033613965
39	0xbd536b5f	-0.05161607
40	0x3cf784c4	0.030214675
41	0xbd8d0c02	-0.06887056
42	0xbcebdf94	-0.028793134
43	0xbbb3e5b2	-0.0054900283
44	0x3d40c86d	0.04706614
45	0xbd96ed25	-0.073694505
46	0x3ce6fd83	0.028197056
47	0x3d685a82	0.05672694
48	0x3d52e3c1	0.051486734
49	0xbc4ccafa	-0.012499565
50	0x3d19f9fc	0.03759192
51	0x3c9c05ce	0.019045737
52	0x3d945ed7	0.07244652
53	0x3d475f77	0.048675027
54	0xbd7b3851	-0.061333004
55	0x3db37400	0.087623596
56	0xbc459819	-0.012060189
57	0xbd87fc44	-0.06639913
58	0xbcf539ed	-0.029934848
59	0x3cf33e19	0.029692696
60	0x3da52de3	0.08065393
61	0x3d58528e	0.052813105
62	0x3cabf5c6	0.020991217
63	0x3d7a7e88	0.061155826
64	0xbcc34705	-0.023837576
65	0xbb97ebc2	-0.004636259
66	0x3cb33f6f	0.021880833
67	0x3cdf006b	0.027221879
68	0xbd64a4fc	-0.055821404
69	0xbd0030a7	-0.0312964
70	0xbd691416	-0.05690392
71	0x3d1ab75d	0.037772525
72	0xbcaaab6f	-0.020833699
73	0xbda8e0c4	-0.08245996
74	0xbdae7020	-0.0851748
75	0xbd5b6881	-0.05356646
76	0x3d16daf0	0.03682989
77	0x3da69053	0.081329964
78	0x3d9cd591	0.07657922
79	0xbd0b4c16	-0.034008108
80	0x3d7bee3c	0.061506495
81	0x3d9261c2	0.07147552
82	0x3c71407d	0.014724848
83	0x3db5166b	0.088421665
84	0x3d47e044	0.04879786
85	0x3c8bb8ac	0.017055832
86	0xbda38e27	-0.07986098
87	0xbd81b422	-0.06333186
88	0x3c9cac77	0.019125206
89	0x3d93cf30	0.07217252
90	0xbd406040	-0.04696679
91	0xbc81f002	-0.015861515
92	0xbd890f27	-0.06692343
93	0x3db1c53d	0.08680198
94	0x3c8f920c	0.017525695
95	0xbc873594	-0.01650504
96	0xbba5598d	-0.0050460757
97	0x3da43a1c	0.08018896
98	0x3b922f34	0.0044611935
99	0x3da50974	0.08058444
100	0xbc2e3bea	-0.010634402
101	0x3d963843	0.0733495
102	0xbd66e561	-0.056371097
103	0x3d9c729a	0.07639046
104	0xbd8bbde3	-0.068233274
105	0xbd44d6ba	-0.04805634
106	0xbda2ab2c	-0.07942805
107	0x3c63e5ed	0.013909799
108	0xbd0526cc	-0.032507703
109	0x3d159c49	0.036526
110	0x3d953fe7	0.07287579
111	0xbd7f80e3	-0.062378775
112	0x3d5cb7bd	0.053886164
113	0x3d66eef5	0.05638023
114	0xbd08df6e	-0.033416204
115	0xbcd8377e	-0.026393648
116	0x3da9eb7e	0.0829687
117	0xbdb81283	-0.08987906
118	0x3d959638	0.073040426
119	0xbb9e7f35	-0.0048369416
120	0xbaf44aaf	-0.001863798
121	0xbd42d418	-0.04756555
122	0xbd455e04	-0.048185363
123	0xbd8ed92b	-0.06975015
124	0xbd14b597	-0.03630599
125	0x3d9ae8e1	0.075639494
126	0xbcb74c08	-0.022375122
127	0xbd1e4b05	-0.038645763
128	0xbd568979	-0.052377198
129	0xbd28ba35	-0.041193206
130	0xbd0bfc38	-0.03417608
131	0x3d64888a	0.055794276
132	0xbdb398a2	-0.08769347
133	0x3c8eff7f	0.017455814
134	0xbdada37b	-0.08478447
135	0xbbfd7b4e	-0.0077356463
136	0xbd02d711	-0.031943385
137	0x3d9c256d	0.07624326
138	0xbd0eca82	-0.034861095
139	0xbd0a2ff0	-0.033737123
140	0xbc89afb9	-0.016807424
141	0x3d9bb68e	0.07603179
142	0x3d09f74b	0.033683103
143	0x3cab1f2d	0.02088889
144	0xbda5fe43	-0.08105137
145	0xbda7fa02	-0.08201982
146	0xbcd220e5	-0.025650451
147	0x3cd2a165	0.025711725
148	0x3d671385	0.0564151
149	0xbd5a73a2	-0.053332932
150	0xbce05f91	-0.02738932
151	0x3ca97eab	0.020690283
152	0x3cf8a36b	0.030351361
153	0x3ce4e342	0.027940396
154	0xbd2fb150	-0.042893708
155	0xbd6940ac	-0.05694644
156	0x3ca83251	0.020531805
157	0xbacacba6	-0.0015472069
158	0xbd796f4d	-0.06089716
159	0x3c4315e8	0.011907078
160	0xbd51fb55	-0.05126508
161	0xbd83db8c	-0.064383596
162	0x3d2f3854	0.042778328
163	0x3d44e94d	0.048074055
164	0x3d1b4444	0.0379069
165	0xbd448dde	-0.047986858
166	0xbda63f4f	-0.08117544
167	0x3d359714	0.044333532
168	0x3dac7879	0.08421416
169	0xbb89efba	-0.004209486
170	0xbd0fb79a	-0.035087205
171	0xbcd67034	-0.02617655
172	0xbd0a91b8	-0.033830374
173	0xbda095be	-0.07841061
174	0xbcf49210	-0.029854804
175	0x3d0f3e27	0.034971382
176	0x3d65ae3e	0.056074373
177	0x3da3e1ac	0.08002028
178	0xbcd6e8ba	-0.02623402
179	0x3dad9e0f	0.08477413
180	0x3d60ee13	0.054914545
181	0xbdb40995	-0.0879089
182	0x3db6b008	0.08920294
183	0x3b25ed4a	0.0025318437
184	0x3c29bab3	0.010359454
185	0x3ce5e78f	0.028064517
186	0x3d616916	0.05503186
187	0xbd42c425	-0.04755034
188	0x3d772ac2	0.06034351
189	0x3d0dd1ee	0.034624033
190	0x3d475aa3	0.048670422
191	0x3cf6f53b	0.030146232
192	0xbd5b04c3	-0.053471338
193	0xbb9f07b4	-0.004853213
194	0xbc16ee42	-0.0092120785
195	0x3db328a4	0.08747986
196	0xbc1d9538	-0.009618096
197	0xbd9e8ec1	-0.07742072
198	0xbc848132	-0.016174886
199	0x3da13a29	0.07872421
200	0xbd1eb3c5	-0.03874566
201	0xbd5ec900	-0.054390907
202	0xbd579173	-0.052628946
203	0xbac5f7e1	-0.0015103781
204	0x3c837577	0.016047223
205	0x3da58b17	0.0808317
206	0xbc928371	-0.017884942
207	0x3cd43e2c	0.025908552
208	0x3d8c3107	0.06845289
209	0xbc963aa7	-0.018338514
210	0xbcc3ef1a	-0.023917723
211	0xbd6a5e24	-0.057218686
212	0x3d77c3a5	0.060489316
213	0x3dacaf8e	0.08431922
214	0x3d882575	0.06647769
215	0x3bc0b352	0.0058807516
216	0xbd4c4b09	-0.049876247
217	0x3db196b1	0.0867132
218	0x3cd0dd60	0.025496185
219	0x3ccf43c6	0.025300872
220	0xbb9816ff	-0.004641413
221	0x3d41e89c	0.047340974
222	0xbd983f7b	-0.07433983
223	0xbcfe7803	-0.031063085
224	0x3c5b64d3	0.013390738
225	0xbd81955b	-0.063273154
226	0x3d1c46ea	0.038153566
227	0xbd9baa0c	-0.07600793
228	0xbcdb1a30	-0.026745886
229	0x3b249b6b	0.002511705
230	0xbc5fdce8	-0.013663508
231	0x3d25717c	0.04039143
232	0xbd7383c6	-0.05945184
233	0xbc251023	-0.010074648
234	0xbd2f7ca4	-0.042843476
235	0x3d5d7a44	0.05407168
236	0xbd93dc40	-0.07219744
237	0xbd934e8d	-0.07192717
238	0x3cbc84dd	0.023012573
239	0xbd4ae7ce	-0.049537472
240	0x3d74cebd	0.059767473
241	0xbd39d59a	-0.045369722
242	0x3ce2c90a	0.027683754
243	0x3beec7f1	0.0072870185
244	0xbd5ef665	-0.0544342
245	0xbd65969d	-0.05605184
246	0x3c63946c	0.013890367
247	0x3cae55f4	0.02128122
248	0xbc305ccd	-0.010764313
249	0x3a2b032e	0.0006523606
250	0x3ccd675f	0.025073705
251	0x3d83718b	0.06418141
252	0x3d9b47f1	0.07582081
253	0xba52af86	-0.0008037019
254	0x3d6f0ed3	0.058363747
255	0xbc556f49	-0.013027021
